Cifar10.pth (torch_old, 317011 bytes, 18 tensors)

conv1.weight f4 [6, 3, 5, 5]
000000 b6 43 35 3e 0e b3 36 be 58 df 20 be a0 ee 98 be
       0.17701611 -0.17841741 -0.15710199 -0.29869556
000010 e4 dc 20 be 34 8e df be 73 79 bb be 39 c4 f1 be
       -0.15709263 -0.4366318 -0.36616096 -0.47220019
000020 e5 d8 07 bf 4a a9 ad be 5d 21 9d be 21 27 27 bf
       -0.5306533 -0.3391822 -0.30689517 -0.6529408
000030 2f ac 0d bf 9c 2c 17 bf 89 9c 25 bf c9 71 d3 be
       -0.55340856 -0.59052444 -0.6469198 -0.4129775
000040 91 79 30 bf c2 ad 1b bf ec 19 34 bf 07 24 0a bf
       -0.68935496 -0.6081201 -0.70352054 -0.53961223
000050 fb 84 a1 be 6b 3e 98 be d0 a4 25 be cf c4 00 be
       -0.3154677 -0.2973512 -0.16176152 -0.12575077
000060 cd 86 93 be 2d 28 0c bd d7 4e 88 bd e5 30 87 be
       -0.28813782 -0.034218002 -0.066556625 -0.2640449
000070 34 60 d0 bd e0 d0 8d bc 80 17 a6 3d 30 d1 90 3d
       -0.10174599 -0.017311513 0.08109951 0.07071149
000080 d8 ed d7 3d 6c 51 75 3e 0c fb d3 3c 22 1e bf 3d
       0.10543412 0.23956841 0.025876544 0.09331919
000090 ea ac ac 3e 75 4f 72 3e 2a c6 9f 3e 81 a4 71 3e
       0.33725673 0.23663123 0.31205875 0.2359791
0000a0 ef e0 d9 bb 55 09 e4 3d 1d cf 7f 3e 5c b6 49 3e
       -0.0066491286 0.111345924 0.24981351 0.19698471
0000b0 f8 92 c9 3d 6f 59 b8 be 2f aa d0 be c4 f6 02 be
       0.09842485 -0.36005732 -0.4075484 -0.12789446
0000c0 67 e0 2f 3d 1a 97 29 be 40 57 73 3e 9e 73 60 3e
       0.042938616 -0.16561547 0.23763752 0.21919104
0000d0 65 80 59 3e ea 2c eb 3d cb 3e 7e 3d 20 38 94 3e
       0.21240385 0.11483176 0.062071603 0.2894907
0000e0 91 7f f4 3e bd cd 21 3f f9 ba 18 3f d6 56 72 3e
       0.47753575 0.63204557 0.596603 0.23665938
0000f0 e3 bd c6 3e 2a d7 08 3f 90 63 30 3f c7 da 29 3f
       0.38816747 0.53453314 0.6890192 0.6634945
000100 ef f5 02 3f 8d 3e 47 3e a5 fc fe 3e bc 18 27 3f
       0.51156515 0.19457455 0.49802127 0.65272117
000110 89 2b 3f 3f ef 09 14 3f ec cf 80 3d f5 0c ac 3e
       0.74675804 0.5782766 0.06289658 0.33603635
000120 b3 65 d2 3e 3f b7 eb 3e 8e c0 a4 3e dc f5 84 bd
       0.41093215 0.46038243 0.32178158 -0.064922065
000130 ba 22 27 3f dd a9 9f 3d c8 08 08 3e 31 be 0e 3f
       0.65287364 0.07796071 0.132846 0.5575896
000140 26 25 54 3d 87 20 6f 3f 32 38 3b 3f 61 78 76 3f
       0.05179324 0.9340901 0.7313262 0.96277434
000150 dc 0c 5d 3f fa 3c 0f be d1 3a c6 3f 8e a1 e4 3f
       0.86347747 -0.13988104 1.5486699 1.7861803
000160 55 5a 9c 3f a6 39 01 3e d0 b2 9e bf 1b 48 07 bf
       1.2215067 0.12619647 -1.2398319 -0.528444
000170 7b 19 44 bf 83 2a ac bf fb 19 68 bf 8a 8d db bd
       -0.7660138 -1.3450474 -0.90664643 -0.10720356
000180 90 e7 16 bf 5c 28 a2 bf c0 c2 b1 bf 36 d0 9d 3d
       -0.58947086 -1.2668567 -1.3887558 0.07705729
000190 91 29 4c bf a5 cf 4d bc 64 ef 35 bf 2e 77 4f bf
       -0.79750925 -0.012561713 -0.71068406 -0.8104123
0001a0 78 5b ce be 11 cf 3f bf 9a e1 c7 3e 23 6d 06 bd
       -0.4030416 -0.74925333 0.39039308 -0.032818925
0001b0 b5 db 2e 3e 12 7c 00 3e f7 a3 a7 be 32 3e d7 3f
       0.17075999 0.12547329 -0.32742283 1.6815856
0001c0 87 67 f0 3f 1a 08 31 3f 8c 7d db bd 61 a9 40 bf
       1.8781594 0.69152987 -0.107173055 -0.7525845
0001d0 b3 b2 76 be ad 11 28 bf c5 62 b2 bf f4 a6 3c bf
       -0.24091606 -0.6565197 -1.3936392 -0.7369225
0001e0 b1 44 ff 3e a3 04 38 bc 7b 46 5e bf e5 5f 56 bf
       0.49857095 -0.011231574 -0.86826295 -0.83740073
0001f0 43 74 3f 3f 60 48 ce be 6e d8 ca bd b8 49 58 bf
       0.74786776 -0.40289593 -0.09904562 -0.84487486
000200 7c d8 34 bf 0d 69 c3 be 74 c4 eb be 71 13 80 38
       -0.7064283 -0.38166085 -0.4604832 6.107137e-05
000210 26 33 b9 be 83 bb 86 3c ee 6c 82 3e 55 19 50 bd
       -0.36171836 0.016446834 0.25473732 -0.05080541
000220 e5 90 b0 3f de 6b ca 3f 99 af 64 3f 24 c9 23 3e
       1.3794218 1.5814168 0.8933044 0.15994698
000230 98 bc f4 be 10 44 e3 bc ee 6b 91 be 82 aa 73 bf
       -0.47800136 -0.027742416 -0.28402656 -0.9518205
000240 e8 33 82 be 49 13 60 3f 17 35 a2 3e 35 1b 59 be
       -0.25430226 0.87529427 0.3168113 -0.21201785
000250 ec fc 79 be ed e9 66 3f 40 a5 b6 bd b3 06 0f bb
       -0.24412888 0.9020069 -0.08918238 -0.0021824061
000260 48 ce e4 3d ee 70 dc bd 84 15 56 3c 23 89 66 bd
       0.111721575 -0.10763727 0.013066653 -0.056283128
000270 ea 03 8b bc a2 a6 6b bd 51 4e 0a 3d ea c3 b6 3c
       -0.01696964 -0.05753196 0.033766095 0.022310216
000280 2d 08 de bc 19 c5 84 bb b4 e5 d6 bc 7f 13 c4 bd
       -0.027103508 -0.004051816 -0.026232578 -0.09574031
000290 bd 2a 07 bd 96 21 d5 3d 45 dd 66 bd ee cc 52 bd
       -0.032999743 0.10406797 -0.056363363 -0.051464967
0002a0 62 5b a7 bd 45 2d b2 3d 92 8c 6f 3b 81 0a cf bd
       -0.08171727 0.08700041 0.0036552292 -0.10109425
0002b0 6a ec e9 bb 9e cc c4 bc ad b3 d9 3d 06 3c 31 3d
       -0.0071387785 -0.02402335 0.106299736 0.043270133
0002c0 77 ee 17 bd b6 01 7d 3d ca 9b c9 3d 04 ae 69 bd
       -0.037092652 0.06176921 0.098441675 -0.05705072
0002d0 31 d4 bb 3c 0b 84 e5 b8 1d bb d9 bc 49 ff ce 3c
       0.02292833 -0.00010944166 -0.02657848 0.025268214
0002e0 cd 40 0d bd 8e 57 22 3d 30 ff 2d bd bf 0c 3b 3c
       -0.034485627 0.03963428 -0.042479694 0.011416613
0002f0 5f 19 34 bd b1 5c bb bc 7e a4 15 bc 88 4b 8c bd
       -0.04396951 -0.022871347 -0.009133456 -0.06850344
000300 7c 3d cd bd 29 9f d1 bd 96 e8 dd bd 20 79 85 3d
       -0.10021493 -0.102354355 -0.10835378 0.065172434
000310 60 4c 77 bd aa f2 81 bd 00 59 78 bc e6 d5 a8 3d
       -0.06037557 -0.063451126 -0.015157938 0.08243923
000320 33 ce 84 3d 84 78 06 bd 79 54 bc bd e3 37 13 bd
       0.06484642 -0.032829776 -0.091957994 -0.03594197
000330 31 6e c8 3c 8f cb dc 3d 0f 85 b4 bb d7 7e e4 3d
       0.024466606 0.10781013 -0.005509026 0.11157005
000340 02 a4 a4 bd 03 d3 4a bb 2f 82 29 bd 67 81 ae 3d
       -0.080390945 -0.0030948527 -0.04138392 0.08520775
000350 1e 8c 3a bc 61 12 d2 bd 86 54 e5 3d 0d ed c1 bd
       -0.011385946 -0.10257412 0.11197762 -0.09469042
000360 ce 8d 2f 3d 7a bd dd bd 51 b5 67 3d 8b 60 90 bd
       0.042859845 -0.108271554 0.0565694 -0.07049664
000370 92 6d cb bd 2b e3 8e b8 f6 21 3f bb 73 e3 e1 bd
       -0.09933008 -6.813401e-05 -0.002916453 -0.110297106
000380 8b 86 a7 3d e1 9d e7 be 31 20 1b 3d 34 b9 eb 3d
       0.08179959 -0.4523764 0.037872497 0.11509934
000390 47 2a 9f be 2b 1e df be 1b 38 52 be 4f 5b 90 3e
       -0.31086943 -0.43577704 -0.20529215 0.28194663
0003a0 75 21 26 3e d3 1f 58 be 62 e8 88 bf 4e 7f 8c 3e
       0.162237 -0.2110589 -1.0695918 0.27440876
0003b0 51 ce 1f 3f 05 41 d1 3e a0 26 75 be 30 34 83 bf
       0.6242419 0.40869918 -0.23940516 -1.0250301
0003c0 d4 7a 07 3f 76 b8 17 3f d6 4b 44 3e 9d ff bb 3d
       0.52921796 0.5926584 0.19169554 0.09179614
0003d0 36 99 dc be a6 15 c6 3e 3d 4d 3d 3e 15 8f 94 3e
       -0.4308564 0.3868839 0.18486495 0.29015413
0003e0 8d bd 00 3e eb 5a 34 3d c0 4c e6 3d ce b7 12 3f
       0.12572308 0.04403202 0.11245108 0.57311714
0003f0 d4 e6 c9 3e 07 94 06 3d 08 22 51 be ef 36 c3 3e
       0.3943392 0.032856014 -0.20423138 0.38127849

conv1.bias f4 [6]
000000 0b eb ac 3e 50 62 2a 3f ba eb e2 bd c9 30 cd 3f
       0.33773074 0.6655626 -0.110801175 1.6030513
000010 76 c8 0a bc 17 bd b0 3f
       -0.008470645 1.3807706

conv2.weight f4 [12, 6, 5, 5]
000000 41 e7 3d 3d 5a ee ab bc 59 74 ed bd 93 a5 6d be
       0.04636312 -0.020987678 -0.11594457 -0.23207693
000010 ae 82 d3 bd 56 66 fd 3d a3 d9 d2 bd 21 60 2b be
       -0.103276595 0.12373035 -0.10295417 -0.16735889
000020 f4 cd b4 be 58 6b cd bd 54 1c db 3d 45 18 e7 bd
       -0.3531338 -0.1003024 0.106987625 -0.11283926
000030 d3 76 a5 be 2e 9f 85 be e6 d0 29 3e 2f 9b 0a be
       -0.32317218 -0.26098007 0.16583595 -0.1353576
000040 c9 f3 45 be 2f 31 8c be e0 f1 75 3d 25 53 00 3f
       -0.19331278 -0.27381274 0.060045123 0.5012687
000050 9c 73 19 be 0c df 1f 3d 50 4c 14 3e 51 9a a1 3e
       -0.14985508 0.039031073 0.14482236 0.31563047
000060 f4 02 5c 3f 82 9d e3 be 6b d7 72 be 2b 87 9b be
       0.85942006 -0.44456106 -0.23714988 -0.30376562
000070 81 8a 81 bd 08 d3 73 be 55 f8 d6 be 64 a5 44 bd
       -0.06325246 -0.23810971 -0.41986337 -0.04800929
000080 56 f8 3a be be d4 58 be ee e4 d7 be 3f 07 99 bd
       -0.18258795 -0.21174905 -0.42166847 -0.07472085
000090 fb 37 20 bc fa bf bc be 96 b9 04 bf 39 82 1b bf
       -0.009778972 -0.36865216 -0.5184568 -0.6074558
0000a0 6a b0 c6 be dd da f0 be 24 77 de be f0 d4 03 bf
       -0.38806468 -0.4704198 -0.43450272 -0.5149679
0000b0 5b 6c a2 be de fe b2 be 70 dd 89 be 3b 18 32 be
       -0.31723294 -0.34960073 -0.26926756 -0.17392056
0000c0 0e 6d 59 be fa 42 93 be a8 dd 76 bd d8 c5 2a bd
       -0.21233007 -0.28762037 -0.06026998 -0.041692585
0000d0 3a 37 b1 bc 7c bc 26 bd fe 1c a3 3d a4 98 89 3d
       -0.02163278 -0.040707096 0.07964514 0.06718567
0000e0 41 f5 68 bd ec 9c 8e bd f1 b9 8c bd c5 0f 97 bb
       -0.056874517 -0.06963524 -0.06871403 -0.004610034
0000f0 e7 a5 f6 3c cf c9 87 bd 95 48 72 bd 08 c8 37 bc
       0.030108405 -0.06630289 -0.05915125 -0.011217125
000100 6a 46 59 3d 20 37 84 bc db 1a 25 3d ab c1 9c 3d
       0.053045668 -0.016139567 0.040308814 0.07654127
000110 a1 ba 70 bd 62 d7 a0 bd fc 81 73 3d 1e 45 14 3d
       -0.058771733 -0.07853581 0.059450135 0.036198728
000120 4a b2 0d bd e7 c5 45 3d a6 1a 8f bc 11 89 24 3d
       -0.034593858 0.048284438 -0.017468762 0.04016978
000130 c1 7e 2b 3d e8 33 4a bd 51 5b 22 3e b2 6c 37 3e
       0.04186893 -0.049365908 0.15855147 0.17912558
000140 4c 18 be 3d 61 a4 a4 3e 8d a4 c8 3e c9 40 c6 3e
       0.09281978 0.3215666 0.39188042 0.38721302
000150 f4 57 9c 3e 6f d1 0f 3f 66 2d fc 3e 59 b8 ef 3e
       0.30535853 0.56178945 0.49253386 0.46820334
000160 4e 0f f2 3d c7 b6 2e 3d a3 53 b9 3e d6 02 c1 3e
       0.118193254 0.04265478 0.36196622 0.37697476
000170 ec 9d 30 3e 0a ed a1 3d 22 7f 21 bd fc 48 52 bd
       0.17247742 0.0790654 -0.039427884 -0.051339135
000180 50 f2 2d 3e ac c5 82 3e 28 5d b2 3e df 24 d7 3e
       0.16986966 0.25541437 0.34836698 0.42020318
000190 80 1c e7 bb 78 42 a5 bc ec 29 86 3b 21 c4 84 3d
       -0.007052958 -0.020173296 0.004094353 0.06482721
0001a0 18 b1 90 3d 8d 4a f3 bc bb 46 94 3d 72 d1 22 3d
       0.07065028 -0.029698635 0.07240053 0.039750524
0001b0 cc 30 7a 3c 16 10 93 3d b0 f4 1d bd 24 9b 6e 3a
       0.015270423 0.071808025 -0.03856343 0.0009102097
0001c0 de 53 3d 3c 95 c9 1d 3d 44 9c 30 3d 19 80 37 3c
       0.01155564 0.03852232 0.043117777 0.011199974
0001d0 c6 64 84 bb f9 5b a8 bd c7 16 20 3d 0e b0 0d 3d
       -0.0040403334 -0.082206674 0.039084222 0.034591727
0001e0 95 c8 a8 bd 7f 96 87 bd c8 b9 97 bd 2c eb 8a bd
       -0.08241383 -0.06620502 -0.07408482 -0.06783137
0001f0 2b 4d 64 bc 5a f1 97 be 9f 97 b2 bd a9 5d ea bc
       -0.013934414 -0.29676324 -0.08720326 -0.028609114
000200 37 24 44 3c bc d1 93 bd f3 c6 9c be d5 17 a8 be
       0.011971525 -0.07217738 -0.30620536 -0.32830682
000210 84 aa 89 be 6a fe 83 be 66 c0 57 be 42 ff 81 be
       -0.26887906 -0.2578004 -0.21069488 -0.2539006
000220 b9 c1 b6 be ba 43 e2 be dd 57 8a be 55 ff 7a 3d
       -0.35694674 -0.44192296 -0.2702016 0.06127866
000230 ce c5 10 bf c5 32 e4 be fb c1 45 be d6 6f 9a 3c
       -0.56551826 -0.44569984 -0.19312279 0.018852156
000240 f0 60 44 3e dc ba da be b7 72 44 be fa 4e 77 be
       0.19177604 -0.42720687 -0.19184385 -0.24151221
000250 e8 3d 32 be fd 4f 24 be fb 99 35 3f 62 a7 1a 3f
       -0.17406428 -0.16046138 0.7093808 0.60411656
000260 74 b1 1e 3f 31 27 36 3f 8e 5a 8e 3f 6a dd a3 3c
       0.6198952 0.7115355 1.1121385 0.02000304
000270 ce fe 13 be 6c e1 9c bd b8 f5 bd 3d 58 17 ed 3e
       -0.14452669 -0.07660183 0.09275383 0.46306872
000280 d5 0c c5 bc 3e 15 e4 bd 75 47 6c be 4b 7e 87 be
       -0.02405397 -0.11136864 -0.23074134 -0.2646354
000290 ca 7f 60 bd 70 fd ab 3c ff bc 00 bd d8 68 5a bd
       -0.05480937 0.020994872 -0.03143024 -0.053322643
0002a0 b9 ac ec bc 24 99 c1 bd 82 87 9d bd b2 d4 f4 bd
       -0.028890954 -0.094530374 -0.07691862 -0.11954631
0002b0 13 9f 1e be 7c d3 9e bd 8f f7 4e bc a7 00 34 bd
       -0.1549037 -0.07755181 -0.012632265 -0.043945935
0002c0 d8 72 ed bd d7 ee 73 be f7 f6 4d 3d bf c6 f9 3b
       -0.1159417 -0.23821579 0.050284352 0.0076225693
0002d0 40 7f 92 bc 9c 4e 17 3e 88 5b 2f 3e 12 65 05 3e
       -0.017882943 0.14776081 0.1712476 0.13026837
0002e0 09 f4 19 3e 2d fc ca 3e c8 d2 0b 3f af 38 c4 3e
       0.15034498 0.3964552 0.546185 0.38324496
0002f0 e0 45 38 3e 9c d4 b7 3c f6 3b c8 bd 60 e5 2b be
       0.17995405 0.022440247 -0.09777062 -0.16786718
000300 b8 57 c8 bc 77 93 8d 3d 5b 54 15 3d e6 3b 6c be
       -0.02445589 0.06912892 0.0364574 -0.23069724
000310 97 99 a9 be 95 b4 6b be 3a 4c a7 be 04 c5 9b bd
       -0.33124992 -0.23018105 -0.32675344 -0.07605937
000320 63 8d 9e bd 29 9d 91 3d 1f 1a 0a bd d4 0c 97 3d
       -0.07741811 0.07110054 -0.033716317 0.07375494
000330 a8 62 59 bd 8c 32 44 bb 51 d3 40 bd ab 48 53 bc
       -0.0530726 -0.0029937355 -0.047076527 -0.012895743
000340 9a 4a 68 bc f7 4f 4f bd 97 d1 14 bd 79 7a 87 bb
       -0.014177943 -0.05061337 -0.036332693 -0.004134473
000350 1e 51 6b bd 0b 64 84 3c 44 87 17 3d 5e 90 87 bd
       -0.057450406 0.016160985 0.036994234 -0.06619333
000360 a7 dc 8c bd 38 f0 38 bd e0 af 31 3d d4 ba eb 3c
       -0.068780236 -0.045150965 0.043380618 0.02877561
000370 da c3 9c 3a 59 1c 69 3c 6b 88 92 bd a2 6d 45 3d
       0.0011960224 0.01422795 -0.07154926 0.048200257
000380 2a 30 39 3d be 1d 1f 3f 95 b9 f6 3e f0 de fb 3e
       0.04521195 0.6215476 0.48188463 0.49193525
000390 cf 3c a3 3e 67 3e f9 3d c4 29 4c be f9 37 30 be
       0.3188233 0.121701054 -0.19937807 -0.17208852
0003a0 21 a9 42 be 0d dc 87 be 8d 7a 09 be 5c 8b 63 be
       -0.1900983 -0.26535073 -0.13425656 -0.2222113
0003b0 a8 cf 50 be 66 28 60 3c b7 20 4a be dd a0 36 3e
       -0.20391715 0.013681507 -0.19739042 0.17834802
0003c0 38 8a 26 3e fc 8c 63 3e ba 67 8f 3e 61 75 81 3c
       0.16263664 0.2222175 0.28008825 0.015803041
0003d0 db f5 10 3f ce 9c 5d 3e 0f ef 06 bd 68 09 65 3d
       0.56625146 0.21641847 -0.032942828 0.055917174
0003e0 7c ce 4f be fb df 20 3f bf 8c 6e bd 51 57 4d 3d
       -0.20293611 0.6284177 -0.058239695 0.0501321
0003f0 2a 0b 0e bd e9 10 89 3d 1a 2c f5 3c a9 b9 07 bc
       -0.034678616 0.066926785 0.029928256 -0.008284011

conv2.bias f4 [12]
000000 ec 95 8d bd ab 28 86 bc f5 bf 54 bd 99 df 46 bd
       -0.06913361 -0.016376814 -0.051940877 -0.048553083
000010 fb 71 05 3d 91 a2 50 bd 2e 2d d0 bb e1 81 cd bc
       0.032579403 -0.050936285 -0.006353042 -0.025086345
000020 ce a5 6d bc 34 fa 3f 3d b8 08 42 3d 81 99 36 bd
       -0.014504863 0.04686947 0.047371596 -0.044579986

batch.weight f4 [12]
000000 f9 2c c7 3f b7 79 7f 3f 37 6c a6 3f f2 5f cb 3f
       1.55606 0.997951 1.3001775 1.5888655
000010 35 87 e1 3f ef 29 ee 3f 6f 47 be 3f 95 5c 9c 3f
       1.7619387 1.8606547 1.486555 1.2215754
000020 af d5 96 3f 83 ef 6e 3f e0 0f d8 3f c6 ad e8 3f
       1.1783961 0.93334216 1.6879845 1.8178031

batch.bias f4 [12]
000000 bd 9e 8a 3e 60 29 22 3e 6f ac 94 be b9 38 f4 be
       0.27074233 0.15836096 -0.29037806 -0.47699526
000010 ae 41 27 bf dd 2f 62 bf f9 f8 89 be 38 34 d0 3e
       -0.65334594 -0.88354284 -0.26947764 0.4066484
000020 3f 19 3b 3e 60 12 ef 3e 13 9c 0c bf 8f 80 23 bf
       0.1827135 0.46693707 -0.5492565 -0.6386804

batch.running_mean f4 [12]
000000 92 f3 72 40 d9 06 04 41 25 80 68 c1 27 59 22 c1
       3.7961164 8.251672 -14.531285 -10.146766
000010 01 20 92 c0 84 6e c2 c0 43 5f a2 bf 7f 15 c7 c1
       -4.5664067 -6.0759907 -1.2685322 -24.885496
000020 c9 2f f2 be 27 9a 7a 41 a7 80 89 c0 76 9a af c0
       -0.47302082 15.662635 -4.2969546 -5.487605

batch.running_var f4 [12]
000000 0b c8 44 42 85 f4 ff 41 34 6a 1b 42 d2 c8 67 42
       49.195354 31.994394 38.853714 57.946114
000010 f3 71 26 42 39 95 41 42 3b 29 32 42 8a 32 49 42
       41.61128 48.395725 44.540264 50.299355
000020 ac d6 7c 42 0f b7 c3 41 bf f2 3f 42 f6 3b 38 42
       63.20964 24.464384 47.987057 46.058556

hl1.weight f4 [200, 300]
000000 8e 49 19 3e f8 96 b8 3c 4c dc 5b 3c de a9 20 3c
       0.14969465 0.022532925 0.013419222 0.0098061245
000010 85 cc 90 bd a4 85 11 3d 87 74 63 bd 51 0c 93 3d
       -0.07070259 0.03552784 -0.05553105 0.071800835
000020 44 19 41 bd bd 9f 40 bd 86 13 03 bc 04 51 bc bd
       -0.047143236 -0.04702734 -0.00800026 -0.0919514
000030 62 5a 54 bd 63 87 d6 bd 3e 28 a5 bd 49 3d 51 be
       -0.05184401 -0.10475042 -0.08064316 -0.20433535
000040 14 8b f3 bd ff 3d 37 be 47 ea d3 bd c6 3e 61 bd
       -0.118917614 -0.17894743 -0.10347419 -0.054991506
000050 4b ec fc bd da 14 aa bd b0 6a 23 bc 5f 27 62 bc
       -0.12349757 -0.08304758 -0.009974167 -0.013803332
000060 4a 94 f2 bd d7 8d f2 3d 28 10 42 3d 5f ab 91 3d
       -0.1184469 0.1184346 0.04737869 0.071127646
000070 13 82 e5 3d c8 4b 1a 3e ca 57 c5 3d ca b0 a5 bc
       0.1120645 0.15067971 0.09635885 -0.020225901
000080 9e 2b 6b bd 3c af 5a bd 66 eb a2 3d 18 45 a1 bd
       -0.057414643 -0.053389773 0.07955055 -0.07874507
000090 96 d8 94 bd 92 96 91 bd 56 25 68 bd 0a d3 9b ba
       -0.07267873 -0.07108797 -0.05667623 -0.0011888456
0000a0 d5 a8 0b be 4f fe 19 be c9 4e 00 be 9f a9 22 be
       -0.13638623 -0.15038417 -0.12530054 -0.15885018
0000b0 b7 d6 35 be 2b c4 9d bd ac 5b 8f bd d2 bb 15 be
       -0.17757688 -0.07703432 -0.06999907 -0.14622429
0000c0 07 54 17 be 7e 7a 5c be c4 73 25 bc ed b0 33 bd
       -0.14778148 -0.21531102 -0.010098401 -0.0438699
0000d0 f7 b2 0e 3d 20 48 1d bd 97 de b5 3d 6a bb 19 3d
       0.034838643 -0.038398862 0.08880346 0.037532248
0000e0 1c 58 7e 3c 90 82 dc 3d 60 57 cf 3d cd d8 98 3d
       0.015523937 0.1076709 0.10124087 0.074632265
0000f0 07 42 71 3d 82 f9 9f bc c3 f6 ac 3d be fd ae 3d
       0.05890086 -0.019528154 0.084455036 0.08544491
000100 dd d9 a0 3b 50 f0 82 bc 5c cb 82 3b a5 47 5a 3d
       0.004908784 -0.01598373 0.0039915275 0.05329098
000110 70 ff 5b bc ac e7 05 3e b5 bf d2 bd e1 c8 36 3c
       -0.0134276 0.13076657 -0.102904715 0.011156292
000120 f6 bc 47 3c ee d7 23 bc d5 27 29 3d c1 de ac 3d
       0.012191048 -0.010000212 0.041297752 0.084409244
000130 c4 6b 1e 3d 7c 03 b7 3b f9 21 89 bd 80 7e e0 bd
       0.038676992 0.005585132 -0.06695933 -0.10961628
000140 a3 7a 8e 3d 5a 1e 0b bd e3 0f f3 3c 96 d4 92 bc
       0.06956985 -0.033964492 0.029670661 -0.017923634
000150 2d 6b 90 ba 3d 0d 68 bd ca 4d 89 bd 4f 1e 13 be
       -0.0011018269 -0.05665325 -0.0670429 -0.1436703
000160 a5 22 36 bd 95 0f a5 bd a2 a7 36 3d 5e 97 40 bc
       -0.044466633 -0.08059613 0.04459346 -0.011754839
000170 78 6b 81 bd cf b4 0d be 9f 71 56 3c 8b e9 0a 3c
       -0.06319326 -0.13838504 0.013088613 0.008478533
000180 98 bc b1 bc 72 f4 2e bd 3a f0 18 bc 14 6c 25 3e
       -0.021696374 -0.04271359 -0.009334618 0.1615451
000190 e9 b6 10 3d 6b 7f 08 3e 5e 2b 75 3d ca f8 0e 3e
       0.035330687 0.13329856 0.05985581 0.13962093
0001a0 98 11 db 3d 88 c7 c3 3a 04 0a 90 bd f0 72 90 bd
       0.10696715 0.0014936784 -0.0703316 -0.070531726
0001b0 c9 7a d0 3d e8 e6 7b 3d e4 f2 ca bd a1 39 94 bd
       0.101796694 0.061499506 -0.09909609 -0.07237554
0001c0 76 91 cd 3c b1 06 bc bd 2f de 74 bd 5f 9d 9a bd
       0.025093775 -0.09180964 -0.059782203 -0.075495474
0001d0 cc 80 b7 bc ad d9 0d bd 6d f1 55 3d 2f ca 8f 3d
       -0.022400282 -0.03463142 0.052232195 0.07020985
0001e0 c1 4b 63 bd 6d 74 ad bb 89 1e e1 3d f5 5a 03 3e
       -0.055492166 -0.00529342 0.10992152 0.12827666
0001f0 69 86 ec 3d 0c 86 af 3d 75 8b 07 3e 57 69 27 3c
       0.11549074 0.08570489 0.13236792 0.010217986
000200 93 d6 c1 3c 13 69 b3 3d a8 b2 9b 3d 05 74 6f 3d
       0.023661887 0.08760276 0.07602435 0.058460254
000210 f8 55 51 3c dd 48 94 bb 19 fb b4 bd 8f d9 c2 3d
       0.012776844 -0.0045252875 -0.088369556 0.09514152
000220 9f f6 0c 3e 06 d2 68 3d 22 db 38 3d 22 38 6c 3d
       0.13765953 0.05684092 0.045130856 0.05767072
000230 84 1d e7 3c fe 04 42 3d 83 f1 90 3c e3 b3 59 bb
       0.028212316 0.047368042 0.017693287 -0.0033218793
000240 23 46 00 3d 8d 25 58 bd 9d c2 82 3c d6 38 b0 3c
       0.031316888 -0.052770186 0.01596194 0.021511476
000250 95 e0 9a bd fb b7 81 3a 75 d5 06 bd 5b 0f 3e 3d
       -0.07562367 0.0009896749 -0.032918412 0.046401363
000260 91 70 ba 3d 1c a8 0a 3e ec 1b 2b 3e 82 f3 34 bd
       0.091035016 0.13540691 0.1670987 -0.04417754
000270 1f ef a5 bd eb b9 e5 bb bc fd 9c bd c6 bc 07 3d
       -0.08102249 -0.0070106885 -0.076655835 0.033139013
000280 5c c4 00 3d 67 c4 bb bc 37 7a 5c ba cb a7 3e 3d
       0.031437263 -0.0229208 -0.00084105454 0.04654674
000290 85 ae 67 3d 5c 25 69 3d c4 01 1c 3d 1b 54 8a 3d
       0.05656292 0.056920394 0.03808762 0.06754323
0002a0 57 27 43 3d 1f 8a 99 3d e7 68 c8 bc 7b 94 b1 bd
       0.04764494 0.07497048 -0.024464084 -0.086708985
0002b0 68 97 54 bd c1 e9 41 bd a2 63 1f 3b 13 ed 36 bd
       -0.051902205 -0.047342066 0.002432086 -0.044659685
0002c0 b7 dd f9 bd 5d a2 96 bd d6 45 40 bd 91 bd fd 3c
       -0.12200492 -0.07355187 -0.0469416 0.030974181
0002d0 41 c4 99 bc ca cc 09 be a4 f6 9e bd 4a aa 38 bd
       -0.018770339 -0.13457027 -0.07761887 -0.045084275
0002e0 67 97 d5 3c 98 4e 96 bd 84 98 96 bd 5b 0f 06 3d
       0.02607317 -0.07339209 -0.07353309 0.032729488
0002f0 5b 30 16 3b 93 7f dd 3c cf 58 de bd 85 94 64 3d
       0.0022917006 0.027038371 -0.10856783 0.0558057
000300 ac af a2 3c d6 83 23 bd ce 54 81 3c 46 c7 2b be
       0.019859158 -0.03992065 0.015787508 -0.16775236
000310 5d e7 08 3d 9f a4 5e bd 5b d3 fb bc af bd 19 bd
       0.03342377 -0.054356214 -0.03074043 -0.037534412
000320 b1 26 c0 3d b5 90 75 3c 4d 1f d8 bd 07 21 b6 3c
       0.0938238 0.014988114 -0.10552845 0.022232546
000330 45 ad 64 bd e2 f5 3c bd ad 26 96 bd 9d 7e 38 bd
       -0.055829305 -0.04613293 -0.073315956 -0.045042623
000340 85 7e f0 bd 59 65 a6 bc c1 39 0c bd 6f 23 1f 3d
       -0.11742882 -0.020311998 -0.034234766 0.03885215
000350 6b fa 81 bd 97 8c 0d bc 39 ec 17 bc 30 f9 12 bc
       -0.063465916 -0.008639476 -0.009272628 -0.008970544
000360 f5 e0 5a ba 29 af 1e bd ca 3a 0c 3c 47 7e 1c bd
       -0.0008349561 -0.038741264 0.008558938 -0.038206365
000370 7b af 49 bb 19 63 64 bd bc 0e 9e 3c 45 e5 c2 bc
       -0.003077476 -0.05575857 0.019294135 -0.023790965
000380 a3 10 82 bd 8f df 01 3d b9 b7 04 3e 98 a7 64 3c
       -0.063508295 0.031707343 0.1296071 0.013955973
000390 26 cc 2a 3c 97 9d 82 bd d8 f3 7f bc 65 e7 4c bd
       0.010424649 -0.06377714 -0.015622102 -0.050025363
0003a0 ad ea 95 bd e9 a1 e8 3b a3 3d 31 bd 68 59 9e 3d
       -0.073201515 0.0070993793 -0.043271672 0.07731897
0003b0 aa 85 db bc 60 03 25 3c 7c 89 a7 3d 81 9d 28 3d
       -0.026797134 0.010071605 0.0818052 0.041165832
0003c0 8c f9 89 bd fa 45 a6 bc bf c1 89 3d 68 4c 4c 3c
       -0.067370504 -0.02029704 0.06726407 0.012469389
0003d0 d6 c5 41 bc 16 37 ee bd c1 72 ba bc 1d 8c 83 bc
       -0.011826953 -0.116316006 -0.022759797 -0.016058022
0003e0 11 43 9e bc 1c 63 10 be 1f c9 8d 3d 11 c5 17 3d
       -0.01931909 -0.14100307 0.069231264 0.03705317
0003f0 18 cf 4d ba fb 0a be bb 0a 50 d4 bc c5 89 bf 3c
       -0.0007850989 -0.005799649 -0.025917072 0.023381123

hl1.bias f4 [200]
000000 24 37 e0 3b 5e 1f 6f bd ed 75 a7 3d ea 55 04 3d
       0.006842511 -0.058379523 0.081767894 0.032308497
000010 5b 51 16 3c f1 2f 67 bc 91 40 78 bd 52 f5 87 3d
       0.00917467 -0.014110551 -0.06060845 0.06638588
000020 52 30 13 bd 6a 7f 34 bd ed b2 af 3d 4d 68 ee 3c
       -0.035934754 -0.044066824 0.08579049 0.029102469
000030 79 67 c0 3d 4c e0 2e 3d 8a c6 8e 3d d3 73 3a bc
       0.09394736 0.042694375 0.06971462 -0.011380154
000040 65 05 75 bd 2d 46 ae bc 42 a6 f2 bc 6c 1c 05 bd
       -0.059819598 -0.021273697 -0.029620294 -0.03249781
000050 d3 6c b5 3d 6d 16 d9 3d 0d 4b 0e 3c 03 fe cd 3c
       0.08858647 0.105999805 0.008684886 0.025145536
000060 5f 23 7e 3c 37 ca cc 3d 8c fd 02 3e 13 de cc 3b
       0.015511363 0.09999507 0.12792033 0.0062520592
000070 83 5b a0 3d a6 14 03 bc e6 61 54 3c 50 8f 9e 3c
       0.078299545 -0.008000528 0.012962794 0.019355446
000080 8a 3d 1f bd 72 3e 8e 3c fe 02 cc 3b e3 4d 6f 3d
       -0.038877048 0.01736376 0.0062259426 0.058423888
000090 0d bb 39 bd 2c 5a 3e 3d 9b 7a 0d bd 7c ae 5b 3d
       -0.0453444 0.046472713 -0.034540754 0.0536332
0000a0 e2 41 94 bd e4 87 54 3c dc 28 5d bd 1e ef 43 bd
       -0.07239129 0.012971852 -0.053994045 -0.04783546
0000b0 fc 6b c9 3d cb 74 4b 3d f5 ab 92 bd cf be 10 3c
       0.098350495 0.04967193 -0.071617045 0.008834555
0000c0 f8 ba b1 bc 75 b2 9a bd 80 89 d5 3d 28 fa 0f 3d
       -0.021695599 -0.07553569 0.10426617 0.035150677
0000d0 a5 21 87 3d df 2f 57 bd f5 f4 63 3d 96 2a e6 3d
       0.06598214 -0.052535888 0.05565353 0.112385914
0000e0 c9 60 88 3e cb c3 42 bd e6 2f b7 3c 1d 8e 0c 3e
       0.2663634 -0.047550004 0.022361707 0.13726087
0000f0 90 a0 74 bd cc 11 ae 3d 85 db 94 3d 53 25 90 bc
       -0.059723437 0.08499488 0.072684325 -0.017595923
000100 4d 12 0c 3d 0f d8 e1 3d 6c fc a9 bc 14 d5 d5 3c
       0.03419714 0.11027538 -0.020750247 0.02610258
000110 63 ec 88 3d 5c b5 c3 3b 2e 22 a6 bc 79 d6 ae 3d
       0.06685712 0.0059725475 -0.02027997 0.08537001
000120 c7 e8 a1 bc 4f f8 da 3d 9e 97 7a 3c 44 80 0b 3d
       -0.019764317 0.10691892 0.015294937 0.03405787
000130 d5 bc 7c bc 4e 53 a4 bc 64 c6 22 3d 74 3f 93 3d
       -0.01542588 -0.020059254 0.03973998 0.07189837
000140 3f 0d d2 bc 7f 29 14 bc 52 f6 47 bd c3 d8 ef bc
       -0.025641082 -0.009043097 -0.048818894 -0.029278165
000150 34 41 35 3d 9e 1b 05 3d c4 b7 fb bb 2b f5 a8 3d
       0.044251636 0.03249704 -0.0076818187 0.08249887
000160 98 16 fd ba f3 67 3a bc 00 32 fa bb 10 d9 ec bb
       -0.0019309102 -0.0113773225 -0.007635355 -0.0072280243
000170 20 4c b2 ba a2 dd e6 bc 3a 81 8b 3d 35 89 fd bc
       -0.0013603009 -0.028181855 0.068117574 -0.030949214
000180 a3 76 00 bd 33 53 05 3d fa 3a 28 3e 6a 6a 17 3d
       -0.03136314 0.032550048 0.16428748 0.03696672
000190 c8 fc 37 bc 8a ca ec 3b 80 0f 2b bc 09 41 60 3d
       -0.011229701 0.007226293 -0.010440707 0.054749522
0001a0 07 89 98 3d 9f e5 dc bc db 0a 00 3d 88 98 98 3d
       0.07448011 -0.02696496 0.031260353 0.07450968
0001b0 52 56 45 bd 8b 48 0d 3e ea ed 7e bd de 0d f3 bc
       -0.048178025 0.13797204 -0.06223861 -0.029669698
0001c0 a3 0c c1 bb 06 7d 21 bc 53 05 88 ba b3 58 1b 3e
       -0.005891399 -0.009856468 -0.0010377563 0.15170555
0001d0 98 5a 52 3d 64 0b f8 3c de c9 33 3d ad 20 9b bd
       0.05135593 0.030278869 0.043893687 -0.07574592
0001e0 28 c9 20 3d c9 6f 05 bd 63 1c 79 3d 77 23 90 3c
       0.039254338 -0.03257731 0.060818087 0.017595036
0001f0 74 cc 41 3d 3a 43 20 bd d7 f0 a7 3d 88 00 9d 3d
       0.047314122 -0.039126612 0.082002334 0.07666117
000200 d5 a4 86 3c 66 0b ac 3c 8f e9 50 bc 07 27 5a bd
       0.01643602 0.021001529 -0.012750997 -0.053259876
000210 76 ef ec bc bd 8a 77 3d 5f 33 48 3d d0 a0 b6 3d
       -0.028922778 0.060435046 0.048877116 0.08917391
000220 62 db 44 3d b1 94 10 bd 7e 31 b1 bc 55 15 12 3d
       0.048060782 -0.035298053 -0.021630045 0.035664875
000230 14 bd c5 3d 98 92 30 3c 9f 99 9a bc 00 23 0d 3d
       0.096552044 0.010777138 -0.01887208 0.034457207
000240 ab 03 04 3d fc 31 5d 3d d4 7a 13 bd b1 d5 7d 3d
       0.03223006 0.054002747 -0.03600581 0.06197137
000250 59 76 be 3d 87 91 c7 bc 99 02 84 3c f4 bb 3d 3d
       0.09299917 -0.024361385 0.01611452 0.046321824
000260 0c 9a 9d 3d 14 d0 c4 3b 11 18 65 bc ad 98 2d bc
       0.07695398 0.00600625 -0.013982789 -0.010595483
000270 53 40 e0 3d 84 8b 77 3c 86 cd 48 bc d1 9a 0e 3d
       0.10949769 0.015108947 -0.012256032 0.034815613
000280 2d 51 dd bc 08 bb 14 3d a1 62 59 3d 87 ff 0e 3e
       -0.027016247 0.03631118 0.053072575 0.13964663
000290 7f 83 10 3d f0 e6 93 3c 9c 60 c5 3d 4a 25 13 bd
       0.035281654 0.018054456 0.096375674 -0.035924233
0002a0 4f 5b 06 bd f2 68 a9 3d 7a d3 43 3d d1 71 45 3d
       -0.032801922 0.0827197 0.0478091 0.048204247
0002b0 9e 06 82 3d 35 d2 b6 3d ff f1 00 3e 19 d4 47 bd
       0.063489184 0.089268126 0.12592314 -0.048786256
0002c0 07 8c f6 3d ad 58 ac 3c 35 96 44 bd 02 80 e4 3c
       0.12038427 0.021038378 -0.04799481 0.02789307
0002d0 8f ec e4 bb fd 26 f2 3d 95 90 e7 bc 72 96 08 3d
       -0.006986208 0.11823843 -0.028267184 0.0333466
0002e0 ab c5 ab 3c 3a 1f c5 bb 5f aa 32 3e b4 a7 1a 3d
       0.020968279 -0.0060156854 0.17447804 0.03775759
0002f0 45 09 a2 bc df 53 ee bc 66 14 96 bd 56 dd 4c bd
       -0.01977981 -0.029092727 -0.073281094 -0.05001577
000300 cf c0 94 3d d6 dd 1a bd f5 b8 2b bd ef fe f4 3c
       0.07263338 -0.037809215 -0.041924436 0.029906718
000310 f7 54 6d 3d ca 66 2b 3c 76 da b6 3d 91 c6 f3 3c
       0.057942357 0.010461519 0.08928387 0.02975777

hl2.weight f4 [75, 200]
000000 35 0a 14 be 2e c7 96 bd 39 ca 17 be 7a 7d 4d bd
       -0.14457019 -0.07362209 -0.14823236 -0.050168492
000010 73 a7 96 bd 89 95 83 bb e8 b0 65 bd 0a c0 72 3d
       -0.07356157 -0.0040156287 -0.056076914 0.059265174
000020 ad fb 9e 3d 7b 81 06 bc d8 4c 01 be 2f a6 4b bd
       0.07762847 -0.0082095815 -0.1262697 -0.049719032
000030 ec f7 c0 bb 83 a3 96 3e f7 89 70 be 7a 14 65 be
       -0.0058889296 0.29421625 -0.2349013 -0.22371092
000040 70 5a 0b bd 84 9a 43 bc d9 e7 a9 bd 78 23 a9 bc
       -0.034021795 -0.011938695 -0.082961746 -0.020646796
000050 1b d5 ad bc ee 97 15 be 99 69 a5 3d 56 e1 e1 3c
       -0.02121978 -0.14608738 0.08076782 0.027573269
000060 67 c4 45 3e 03 bf f5 3a 03 aa 17 be e9 ad 12 bd
       0.19313203 0.0018748943 -0.14810948 -0.035810385
000070 50 9b 1a be 98 51 d0 bd 30 af 80 3d 33 b9 25 3d
       -0.1509831 -0.10171813 0.06283414 0.040459823
000080 67 bd 09 be 10 ef 04 be 28 30 08 bd df f2 2f bd
       -0.13451158 -0.1298182 -0.03324905 -0.04295623
000090 e3 9e 72 3c 5f a4 11 3e 13 e3 71 3d d2 8c c6 bd
       0.014808389 0.14222859 0.059054445 -0.09694828
0000a0 21 b1 2b 3c b1 e8 f4 ba 49 7f 12 3d f1 84 11 bd
       0.010479243 -0.001868507 0.03576592 -0.035527173
0000b0 ef 4f 3c 3e 23 a2 8b 3e a5 e2 7d bd da a7 95 3d
       0.18389867 0.27272138 -0.061983723 0.07307406
0000c0 dc 4d e0 bb 57 ca 39 3c 37 66 9b bd 21 aa 7b bd
       -0.006845219 0.0113397455 -0.07587855 -0.061441544
0000d0 5c 72 04 bd 5c 16 e2 bc 75 f8 84 bd e9 35 c4 3c
       -0.032335624 -0.027598552 -0.06492702 0.023951488
0000e0 60 7b 69 bd 3f 55 16 3d 50 75 ef bc be 75 e8 bd
       -0.057002425 0.03670239 -0.029230744 -0.113505825
0000f0 d2 13 39 bc d1 90 5c 3d 0d 4c 45 3d 48 84 b2 3c
       -0.011296229 0.053849045 0.04816823 0.021791592
000100 24 db 73 3d 58 0b cb 3c 8c 98 94 3c 7a 2c 27 bd
       0.05953516 0.024785683 0.018139146 -0.0408139
000110 c4 f2 29 3d e6 89 c0 3d fe 5b 63 3e 55 34 6e be
       0.041491285 0.09401302 0.22203061 -0.2326215
000120 60 7f 5c bd 5d 67 42 be b3 1d 50 3d f2 b4 8d bd
       -0.05383241 -0.18984742 0.050809573 -0.06919278
000130 82 50 a6 3d 66 0f dc 3d 80 6a ab bb 6f aa 18 be
       0.081208244 0.107451245 -0.0052312016 -0.14908765
000140 e4 6e cf 3c 46 b5 8a 3e d2 3a 1b bc 98 90 85 3c
       0.025321431 0.27091426 -0.009474473 0.0163043
000150 7f 10 b2 3d a4 d8 4c bd 72 0d 76 bd 6b 98 fa 3c
       0.08694553 -0.050011292 -0.060071416 0.030590257
000160 a1 da 55 bd 79 5a cc bc 75 84 bc bd 57 c6 27 3e
       -0.052210454 -0.024945484 -0.09204952 0.16384254
000170 c4 b5 5c 3b ca 65 cf bd a2 11 0e 3e d9 d3 83 bd
       0.0033677677 -0.101268366 0.13873914 -0.06436891
000180 7e 3c a0 3d b2 3b 0a 3d 6f ee ce 3d ef 49 1c 3d
       0.07824038 0.033748336 0.10104071 0.038156446
000190 6b 9f 0e 3d cb 4d 8c 3d d1 c2 9d 3c 01 d5 fe bd
       0.03482 0.06850775 0.019257935 -0.12442971
0001a0 2c 8b c4 bc b0 f9 cd bc 8f 1e 0a be 9e d0 b6 3d
       -0.023992144 -0.025143474 -0.1348822 0.08926509
0001b0 b5 d6 d2 3b c1 57 6a bd 0f c7 ed bd 2b 11 4b bd
       0.0064342865 -0.057212595 -0.11610233 -0.04957692
0001c0 31 82 73 bd 5e fc 86 bb 68 f9 ee 3c 92 2b 29 3e
       -0.059450332 -0.00411944 0.02917166 0.16520527
0001d0 fe d9 f5 3d 9d 7c 26 3d 76 a4 af bc 5f 2e 40 3e
       0.12004469 0.040646184 -0.021440726 0.18767689
0001e0 e1 ca 86 bc 3c cb 04 3d f3 06 1c bd bf 11 a4 3e
       -0.016454162 0.032420382 -0.038092565 0.3204479
0001f0 cb 0d 09 bb 87 21 e7 bd d6 d8 52 be 7c d6 5a bd
       -0.0020912762 -0.11285692 -0.20590529 -0.053427204
000200 66 d9 9e bd d2 1e 29 bd bd f6 d0 bc 57 fe c6 3c
       -0.07756309 -0.04128916 -0.025508279 0.0242912
000210 ab 40 97 bd 34 a4 be bc 90 a1 72 3e d7 bb 16 3d
       -0.07385381 -0.023271658 0.23694444 0.03680023
000220 43 09 4f 3e 03 56 95 3d 05 75 82 3c 2d e3 c6 bd
       0.20218377 0.07291796 0.01592494 -0.09711299
000230 83 2e 53 be df 0a 7d bd 8d 99 a1 3d 2d e6 d1 bd
       -0.20623212 -0.061777946 0.078906156 -0.10248981
000240 01 15 cb 3d 49 12 cc 3d 2f a9 0e bb fd 6a 3a bd
       0.099161156 0.09964425 -0.0021768322 -0.04551219
000250 65 02 cf bd 1c 20 e4 bd db 42 b7 bd d4 3f 64 3c
       -0.101078786 -0.11138937 -0.089482985 0.013931233
000260 a5 d9 3c be 69 d6 71 bd 3b 84 a2 be 0b e6 fa 3d
       -0.184424 -0.059042368 -0.3174151 0.122509085
000270 8e cf 08 3e 26 b1 99 bd 94 b1 9f 3d cc c7 6b 3d
       0.13360426 -0.075044915 0.07797542 0.057563588
000280 c5 6d f2 bc 27 09 58 3e a9 5b 8c be 17 90 c6 3c
       -0.029593358 0.21097241 -0.2741368 0.02423863
000290 1f 07 aa bd 9c cc 7a 3e 46 8c 80 3d cc 4f f9 bb
       -0.083021395 0.24492115 0.06276755 -0.0076083895
0002a0 ca e8 cc 3d 02 a1 de bd b9 5f 2f 3d 92 86 f0 bd
       0.100053385 -0.108705536 0.042815898 -0.11744417
0002b0 50 48 de bd f2 50 8e bd 9f 2a 1d be c5 61 a7 bc
       -0.10853636 -0.06949033 -0.1534829 -0.020432362
0002c0 fb 94 e8 bd aa 24 63 3e fc ca bb 3c 68 99 11 bd
       -0.11356541 0.22181955 0.022923939 -0.03554669
0002d0 5e 63 a3 bd 2d 45 46 3e d0 af bf bd 09 4a 14 3d
       -0.07977937 0.19362326 -0.093597054 0.036203418
0002e0 1a d6 9e 3c b2 da 38 3e ea 9b 82 39 70 b1 47 3c
       0.019389201 0.18052176 0.00024911697 0.0121883005
0002f0 82 51 b0 3d 4c 6e a8 bd a4 0e cd 3d cb 55 64 bd
       0.086092964 -0.082241625 0.10012558 -0.05574588
000300 a3 bc 25 3e 6a a5 9b bd 96 8d ce 3d 71 fa f3 3c
       0.1618524 -0.075999096 0.10085599 0.029782506
000310 d8 0e ab bd b8 72 51 3d 0f 4c 11 bd 3e eb 09 be
       -0.083524406 0.051134795 -0.035472926 -0.13468644
000320 b4 3f a7 3c 1b e6 c1 bd 40 3f d8 bd 30 12 a6 3b
       0.020416118 -0.09467717 -0.10558939 0.005068086
000330 b8 df ab 3d c9 e7 09 be 4a 35 4a 3b a3 56 1e 3d
       0.0839228 -0.13467325 0.0030854517 0.038656842
000340 47 cb 4c 3d 6a 4c 21 3d ed 76 1a 3d 1d 53 87 3c
       0.049998548 0.039379515 0.037711073 0.016519124
000350 63 de 2b 3e 82 e0 54 bd 59 c5 52 bd 34 04 c4 bd
       0.16784053 -0.05197192 -0.051457737 -0.09571114
000360 95 35 24 3d 89 28 4f 3c ca db fa bb d3 d0 b9 bd
       0.040090162 0.012643942 -0.0076555954 -0.09073033
000370 ef 90 85 bd e2 1d 97 bd ed 81 69 bd 02 9c a1 3d
       -0.065217845 -0.073787466 -0.057008673 0.07891084
000380 69 07 54 be cf 7e 38 3c 2b 68 29 be 3e c6 3f 3d
       -0.20705952 0.011260702 -0.16543643 0.046819918
000390 b6 97 80 be 40 ad 0b bb 1b bb 38 3d 64 8a eb bc
       -0.25115746 -0.0021312982 0.045100313 -0.028752513
0003a0 3e 5c 4e be 06 b2 29 bc f1 13 5b 3d 90 46 f8 3d
       -0.20152375 -0.0103573855 0.053485814 0.12122834
0003b0 9b 13 b2 3c 97 20 e5 3d 46 63 c8 3c df d1 4a be
       0.021737864 0.11187857 0.0244614 -0.19806622
0003c0 63 a5 e5 bd bf e1 f7 bc 4c 15 93 bd eb 6d b6 bc
       -0.11213186 -0.030259011 -0.071817964 -0.02226921
0003d0 c0 df 35 3d ab 36 bf bd e4 8b 01 3c 9d a0 71 3c
       0.044402838 -0.09336599 0.007906888 0.014747766
0003e0 e0 52 05 bd 46 a2 81 be b4 d4 c0 39 44 ce 4b bd
       -0.03254974 -0.25319117 0.0003677957 -0.049757257
0003f0 af 24 a2 be 55 b3 29 bd db dd 50 3d 17 b0 ef 3d
       -0.31668612 -0.04143079 0.050992828 0.11703508

hl2.bias f4 [75]
000000 f8 d6 0e 3d 70 e9 3f 3d 8a f3 5f bd c4 98 b8 3c
       0.03487298 0.046853483 -0.054675616 0.022533782
000010 f8 05 88 bc dc 10 db 3c e0 7a bb 3c e0 8b 0b bd
       -0.016604409 0.026741438 0.02288574 -0.034068942
000020 53 02 9d bc c8 38 80 bc 83 32 83 3d f3 4c 30 bd
       -0.019166147 -0.015652075 0.06406119 -0.043042134
000030 cb c4 3d bd 52 eb 60 3d 78 0b ec 3c 77 38 89 3d
       -0.046330255 0.05491192 0.028814062 0.06700223
000040 72 d5 b3 bc 0e e4 33 bd 0a 4c 0a 3d 18 c2 38 3c
       -0.021952365 -0.04391866 0.033763923 0.011276744
000050 a8 59 81 3c e0 5c 24 bd c0 c9 3b 3d f6 87 63 3d
       0.015789822 -0.040127635 0.0458467 0.055549584
000060 6e 08 29 3d 78 8d 26 bd c0 3c fa 3c 27 be 52 bb
       0.041267805 -0.04066226 0.030546546 -0.0032156797
000070 4d 2f 46 3c 4a 79 54 bd 6a 1d d1 bc 48 38 93 3c
       0.012096238 -0.051873483 -0.025526721 0.017971173
000080 62 fd e8 bc 81 b3 72 bd aa f6 b3 bc 92 47 7e 3d
       -0.028441135 -0.05925322 -0.021968205 0.062079974
000090 15 3a 0a bd f4 b5 84 bd f0 d9 2c bc 5e 1c 1f bd
       -0.033746798 -0.06480017 -0.010550007 -0.038845412
0000a0 78 c3 03 3c 56 13 7f 3d c3 e2 ff 3a e0 3b c2 bb
       0.008042209 0.0622743 0.0019522536 -0.005927548
0000b0 ec 03 54 3d 0d 4e 8a 3d a5 52 16 bd fa 13 38 3d
       0.051761553 0.06753168 -0.03669991 0.044940926
0000c0 24 13 e2 3c 1b fe 8b 3d 5c 68 a6 3c ce ad b0 bc
       0.027597018 0.06835576 0.020313434 -0.021567252
0000d0 fd 79 89 bd ba df 03 3d 00 33 29 bc bc 35 9c bc
       -0.067127205 0.032195784 -0.010327101 -0.019068591
0000e0 cd e7 79 bd 40 eb 73 bd b6 bf 24 bd 3c 6c bd 3c
       -0.061012078 -0.059550524 -0.040221892 0.0231229
0000f0 b3 ee 8e bd de 67 5c 3d 0d 11 06 3b 10 87 82 bd
       -0.06979122 0.053809993 0.002045694 -0.063734174
000100 46 a2 16 bd f4 f8 1d bc 46 32 20 3d 1c d6 06 3d
       -0.03677585 -0.009641875 0.039110444 0.032919034
000110 f8 3d e4 bc 74 92 c8 3c 44 d8 0e bd 28 85 20 bc
       -0.02786158 0.024483897 -0.034874216 -0.009797372
000120 7d 7f 90 3d b2 95 48 3d 9c c1 1e bd
       0.070555665 0.048970886 -0.03875886

batchhl.weight f4 [75]
000000 a7 c7 06 3f c2 7c fd 3e 1b 66 c9 3e 8a 7f bc 3e
       0.52648395 0.49509245 0.39335713 0.36816055
000010 18 44 04 3f 54 15 ec 3e a5 7f f8 3e 54 81 cc 3e
       0.516664 0.46110022 0.48534885 0.3994242
000020 5d c4 ec 3e 2e 0f 00 3f 1f c6 0f 3f bb ab 07 3f
       0.46243563 0.5002316 0.56161684 0.52996415
000030 4e 45 13 3f 51 ed 1c 3f 03 7d d5 3e f6 3a 04 3f
       0.57527626 0.61299616 0.4169694 0.5165247
000040 9a 71 e4 3e 94 6e 06 3f f6 56 19 3f 81 ab aa 3e
       0.4461792 0.5251248 0.59898317 0.33333972
000050 ce be 1c 3f f0 a9 df 3e 56 fc 0d 3f 20 8c fd 3e
       0.61228645 0.4368434 0.5546316 0.4952097
000060 7c 26 05 3f 2c 98 1a 3f 4a bb a6 3e 90 ff e7 3e
       0.5201185 0.60388446 0.32564765 0.45312166
000070 2b f4 10 3f a8 46 a3 3e e8 0b ea 3e aa 81 0e 3f
       0.5662257 0.31889844 0.4571221 0.556666
000080 f3 dc 06 3f 94 a7 c8 3e b8 9a 80 3e bd 95 f8 3e
       0.5268089 0.39190352 0.2511804 0.4855174
000090 ed 64 04 3f 73 a4 cd 3e c8 10 94 3e 4f f8 f6 3e
       0.517165 0.40164527 0.28919053 0.4823632
0000a0 a5 4c de 3e e1 8b 16 3f b1 1e e5 3e 05 23 af 3e
       0.4341785 0.5880719 0.44749978 0.34206405
0000b0 60 7c 9e 3e b0 30 ea 3e 60 21 09 3f 86 c2 26 3f
       0.30954266 0.4574027 0.5356655 0.6514057
0000c0 38 58 15 3f 9c 95 bd 3e ea af 00 3f c1 88 d1 3e
       0.58337736 0.37028205 0.50268424 0.40924647
0000d0 78 f4 d1 3e 8f 5a 1a 3f 3c eb e9 3e 69 08 fe 3b
       0.41006827 0.6029443 0.45687282 0.0077524674
0000e0 08 58 08 3f 54 3a b8 3e 2d e0 d4 3e cb 42 ec 3e
       0.53259325 0.35982 0.41577283 0.4614471
0000f0 23 58 de 3e 43 06 cb 3e 38 12 ed 3e 8e 28 e3 3e
       0.43426618 0.39653215 0.46302962 0.44366878
000100 3f a4 0e 3f b0 7a 12 3f ac 70 b2 3e c6 30 04 3f
       0.5571937 0.57218456 0.34851587 0.5163692
000110 6f da d8 3e 17 be 0b 3f 37 dd 02 3f c6 20 d2 3e
       0.42354152 0.5458693 0.511188 0.4104063
000120 9a b8 13 3c 64 ed f0 3e d2 b2 e7 3e
       0.00901618 0.47056115 0.45253617

batchhl.bias f4 [75]
000000 8b 45 6b 3e 8a db f2 bb ec 65 3f bd d1 df 17 3e
       0.22975747 -0.007411425 -0.04672806 0.14831473
000010 0d 33 06 3d 7e 5a 30 3d e6 82 a8 bd 6c b3 ce 3d
       0.03276353 0.04305505 -0.08228092 0.10092816
000020 b7 c9 86 3e 12 db 96 3d 59 a5 6f bd 3b 60 ac 3b
       0.2632577 0.07366003 -0.058507297 0.005260495
000030 d2 33 8b 3e 86 d4 1d be dd cb 53 3e f7 11 44 3e
       0.27187973 -0.15413103 0.20683236 0.19147478
000040 23 aa 89 3e 8c ac 72 3e fa 70 9a bd 82 0f ec 3b
       0.26887617 0.23698634 -0.0754108 0.007203997
000050 96 3f fe 3d 0f a7 f9 3d ad 1c 03 3e 50 77 5a bd
       0.12414472 0.12190067 0.12803908 -0.05333644
000060 fc b6 b0 3d 41 fc 9f 3d 36 8e 2c 3e 51 a9 12 3e
       0.086286515 0.078117855 0.16851124 0.14322402
000070 7b 52 1f 3e 8a ad d6 3d 41 58 05 3e 21 58 c9 3d
       0.15558808 0.10482319 0.13021947 0.098312624
000080 6a 54 87 3d 91 63 0c 3e 42 17 93 3c 37 df 8e 3d
       0.066078976 0.13709857 0.017955426 0.069761686
000090 49 0d cd bd 20 93 e0 bd b6 2b ee 3d cd dd 24 3e
       -0.100122996 -0.10965562 0.11629431 0.16100235
0000a0 f4 b6 86 bd 75 49 20 be 82 6f b2 3e 9b f8 31 3c
       -0.06577864 -0.15653022 0.348507 0.010862495
0000b0 49 22 36 3e 10 d0 03 3d a8 02 02 3e db 02 98 3d
       0.17786516 0.032180846 0.12696326 0.0742242
0000c0 dd 54 51 3e 69 2b 15 bd 8f 43 10 bd d1 b6 28 3e
       0.20442529 -0.036418352 -0.03522068 0.16475989
0000d0 10 13 86 3c e7 18 e0 bb 25 a6 13 3d 5b 85 b8 bc
       0.016366512 -0.006838906 0.03604712 -0.022524526
0000e0 a5 6d 64 3e 45 18 a3 3d fc 5b d8 3d 9f 5a 41 3e
       0.22307451 0.079636134 0.105644196 0.18882225
0000f0 08 6a f6 bd be 36 b6 3d e8 e2 ef 3d 49 c1 81 3e
       -0.120319426 0.0889716 0.11713201 0.25342777
000100 2b 2a 85 3e e4 f7 ca bd ef ca f8 3d 8d a6 2b 3e
       0.26008734 -0.09910563 0.121480815 0.16762753
000110 90 54 dc 3d 74 9b f7 bb d7 64 31 be 17 ff 7c 3d
       0.107583165 -0.0075563733 -0.17323624 0.06176671
000120 e5 d5 e3 bc 6e 15 2b 3c 80 b8 47 3d
       -0.027811954 0.010442121 0.048759937

batchhl.running_mean f4 [75]
000000 df 26 85 bc 57 35 13 c1 c4 73 cb 3f 8f 7e 49 40
       -0.016253887 -9.200522 1.5894704 3.1483495
000010 f4 4d e1 3f ce fb b3 3f 61 46 f5 bf 24 2e 40 41
       1.7601914 1.406122 -1.9162103 12.011265
000020 8d d0 4c c1 6e ae 70 c1 84 c5 e3 c0 c3 02 29 c1
       -12.800916 -15.042585 -7.117861 -10.563174
000030 9d 11 7c 41 3d 6c ba bf 9c 3d dd c0 ca 17 06 41
       15.7543 -1.4564282 -6.9137707 8.380808
000040 22 de 27 3f 37 e0 1e 40 ba 79 0a c1 ca 15 59 c0
       0.6557332 2.482435 -8.654718 -3.391955
000050 cb 32 5c c1 44 4c 50 c1 eb 67 21 c0 f5 cd 23 40
       -13.762401 -13.01862 -2.5219676 2.5594456
000060 50 a2 8d c1 88 a2 42 c1 f0 ae 87 40 08 ec c3 c0
       -17.704254 -12.1646805 4.2401047 -6.1225624
000070 07 32 d8 c0 b5 ab 2f 40 c8 69 a0 be 1b eb 24 c1
       -6.756107 2.7448552 -0.31330705 -10.307399
000080 c0 ea 0c c1 53 b0 0b 41 03 39 5a 40 a6 e8 a0 c0
       -8.807312 8.730548 3.4097297 -5.0283995
000090 37 13 36 c1 d2 87 a6 3f 6c d9 99 3f 67 be 60 c1
       -11.379691 1.3010199 1.2019477 -14.046485
0000a0 20 ab 20 40 fd 7f c5 3f 39 ba 46 c0 e6 34 3f c0
       2.5104446 1.5429684 -3.1051161 -2.9876037
0000b0 ec a1 85 c0 32 e5 36 c0 fb 96 41 c1 13 06 07 c1
       -4.176016 -2.857739 -12.09936 -8.438983
0000c0 d6 ed 6e 41 8f 5f 85 c0 cf 2a 08 c0 ac f8 22 c1
       14.933065 -4.167915 -2.1276128 -10.185711
0000d0 8d 16 ab c0 4b e4 42 c1 6e 54 d4 3f 3f 56 41 bf
       -5.346503 -12.180736 1.6588266 -0.75522226
0000e0 79 85 f9 c0 f4 72 9d c0 1b d4 0b c1 d7 ae 87 be
       -7.797543 -4.9202824 -8.739284 -0.2650058
0000f0 55 a8 0d c1 fe db d3 c0 49 aa b0 c0 f5 45 c6 3d
       -8.853597 -6.6206045 -5.520787 0.09681312
000100 33 f8 f1 3f 4b 6c 43 c0 3c ef 3e 41 dc 19 cb 41
       1.8903869 -3.0534847 11.933407 25.387627
000110 2a c7 24 bf ed 81 e7 c0 85 65 ec c0 32 de 79 40
       -0.643664 -7.23461 -7.3873925 3.9041867
000120 1d d1 ac 3f ef 1c 2f c1 ce 31 b7 c0
       1.3501316 -10.944564 -5.7248297

batchhl.running_var f4 [75]
000000 d5 12 07 42 77 db 4b 41 bb 6f fb 40 8a 92 30 41
       33.76839 12.74108 7.857389 11.035776
000010 24 7f da 41 f1 49 a6 41 10 8f 47 41 0f 67 a8 41
       27.31208 20.786104 12.472427 21.050322
000020 c6 22 09 42 62 8a 05 42 4c e8 eb 41 00 97 a4 41
       34.28396 33.38514 29.488426 20.57373
000030 91 02 62 42 72 02 86 41 f8 29 42 41 66 a1 d2 41
       56.502506 16.751194 12.135246 26.328808
000040 26 38 14 42 d1 9b f7 41 b1 93 71 41 84 9b 4b 41
       37.054832 30.951082 15.098557 12.725468
000050 8c db ec 41 5e 17 c6 41 28 44 be 41 86 37 e8 41
       29.6072 24.76141 23.78328 29.027111
000060 8a 4a 06 42 66 cb 41 42 ce 13 18 41 74 4e ce 41
       33.572792 48.44863 9.504835 25.788307
000070 ae 4c ac 41 6b 0a 95 41 d6 ed c8 41 a9 c1 45 42
       21.537441 18.630087 25.11613 49.43912
000080 fd 7c dc 41 f3 1d be 41 f7 92 f9 3f fc b9 b0 41
       27.56103 23.764624 1.9497975 22.090813
000090 a6 0f e0 41 6b 3a 92 41 bd 93 ce 40 d8 bb f9 41
       28.00764 18.278524 6.4555345 31.21672
0000a0 8d bf 31 41 ec e1 28 41 40 4d 29 42 7e 78 13 41
       11.109265 10.555157 42.32544 9.216917
0000b0 20 57 cd 41 57 00 dc 41 e6 14 23 42 42 c2 e8 41
       25.667542 27.500166 40.77041 29.094852
0000c0 14 98 19 42 87 11 62 41 4e 75 b7 41 fa 77 92 41
       38.398514 14.129279 22.932278 18.308582
0000d0 f9 69 d4 40 4f 4c 4b 42 3a 8f 91 41 9f f8 47 3f
       6.637936 50.82452 18.194935 0.7811374
0000e0 f1 cd c2 41 13 fe 15 41 94 77 9a 41 d7 e3 dc 41
       24.350557 9.37453 19.308388 27.61125
0000f0 6f 4f fa 41 23 41 ad 41 e2 f6 b9 41 64 49 e1 41
       31.288786 21.656805 23.245548 28.160835
000100 25 23 07 42 a0 fc 4f 41 68 1b 06 42 58 db 2e 42
       33.78432 12.999176 33.526764 43.714203
000110 93 31 e4 41 3e d8 e3 41 0e ce c6 41 db 13 90 41
       28.524206 28.480587 24.850613 18.009695
000120 5c 56 5e 3f 49 79 c7 41 2c 1e 8d 41
       0.86850524 24.934221 17.639732
